…
 class="p">,</span> <span class="mi">3</span><span class="p">))</span>
<span class="n">model</span><span class="p">.</span><span class="n">summary</span><span class="p">()</span>
</code></pre></div></div>
<!--
    Model: "model"
    _________________________________________________________________
    Layer (type)                 Output Shape              Param #
    =================================================================
    input_1 (InputLayer)         [(None, 32, 32, 3)]       0
    _________________________________________________________________
    conv2d (Conv2D)              (None, 32, 32, 32)        896
    _________________________________________________________________
    average_pooling2d (AveragePo (None, 16, 16, 32)        0
    _________________________________________________________________
    conv2d_1 (Conv2D)            (None, 16, 16, 64)        18496
    _________________________________________________________________
    average_pooling2d_1 (Average (None, 8, 8, 64)          0
    _________________________________________________________________
    conv2d_2 (Conv2D)            (None, 8, 8, 128)         73856
    _________________________________________________________________
    average_pooling2d_2 (Average (None, 4, 4, 128)         0
    _________________________________________________________________
    flatten (Flatten)            (None, 2048)              0
    _________________________________________________________________
    dense (Dense)                (None, 512)               1049088
    _________________________________________________________________
    dense_1 (Dense)              (None, 10)                5130
    =================================================================
    Total params: 1,147,466
    Trainable params: 1,147,466
    Non-trainable params: 0
    _________________________________________________________________
-->
<div class="language-python highlighter-rouge"><div class="highlight"><pre class="highlight"><code><span class="n">model</span><span class="p">.</span><span class="nb">compile</span><span class="p">(</span>
…
