…

<span class="n">model</span><span class="p">.</span><span class="n">summary</span><span class="p">()</span>
</code></pre></div></div>

<div class="language-plaintext highlighter-rouge"><div class="highlight"><pre class="highlight"><code>Model: "model"
_________________________________________________________________
Layer (type)                 Output Shape              Param #
=================================================================
input_1 (InputLayer)         [(None, 28, 28, 1)]       0
_________________________________________________________________
conv2d (Conv2D)              (None, 28, 28, 32)        320
_________________________________________________________________
average_pooling2d (AveragePo (None, 14, 14, 32)        0
_________________________________________________________________
conv2d_1 (Conv2D)            (None, 14, 14, 64)        18496
_________________________________________________________________
average_pooling2d_1 (Average (None, 7, 7, 64)          0
_________________________________________________________________
conv2d_2 (Conv2D)            (None, 7, 7, 128)         73856
_________________________________________________________________
average_pooling2d_2 (Average (None, 3, 3, 128)         0
_________________________________________________________________
flatten (Flatten)            (None, 1152)              0
_________________________________________________________________
dense (Dense)                (None, 512)               590336
_________________________________________________________________
dense_1 (Dense)              (None, 10)                5130
=================================================================
Total params: 688,138
Trainable params: 688,138
Non-trainable params: 0
_________________________________________________________________
</code></pre></div></div>

<p>Let us print the network‚Äôs layers‚Äô name, as well as their output shapes. This will be helpful while curating the training dataset in batches, where we need to mention the layers‚Äô names as keys against matrices as values (defined later) in a dictionary.</p>
…
